…
status":"ok","timestamp":1687533881808,"user_tz":-330,"elapsed":442,"user":{"displayName":"Shubham Patil","userId":"07361696210913335048"}},"outputId":"d4b7bf83-39b6-48dd-e383-bd4095923ac1"},"source":["print(model.summary())"],"id":"interested-personal","execution_count":55,"outputs":[{"output_type":"stream","name":"stdout","text":["Model: \"sequential\"\n","_________________________________________________________________\n"," Layer (type)                Output Shape              Param #   \n","=================================================================\n"," conv2d (Conv2D)             (None, 28, 28, 20)        1520      \n","                                                                 \n"," activation (Activation)     (None, 28, 28, 20)        0         \n","                                                                 \n"," max_pooling2d (MaxPooling2D  (None, 14, 14, 20)       0         \n"," )                                                               \n","                                                                 \n"," conv2d_1 (Conv2D)           (None, 14, 14, 50)        25050     \n","                                                                 \n"," activation_1 (Activation)   (None, 14, 14, 50)        0         \n","                                                                 \n"," max_pooling2d_1 (MaxPooling  (None, 7, 7, 50)         0         \n"," 2D)                                                             \n","                                                                 \n"," flatten (Flatten)           (None, 2450)              0         \n","                                                                 \n"," dense (Dense)               (None, 500)               1225500   \n","                                                                 \n"," activation_2 (Activation)   (None, 500)               0         \n","                                                                 \n"," dense_1 (Dense)             (None, 3)                 1503      \n","                                                                 \n"," activation_3 (Activation)   (None, 3)                 0         \n","                                                                 \n","=================================================================\n","Total params: 1,253,573\n","Trainable params: 1,253,573\n","Non-trainable params: 0\n","_________________________________________________________________\n","None\n"]}]},{"cell_type":"code","source":[],"metadata":{"id":"AoiEs1BCkp60"},"id":"AoiEs
…
